Assets/MoveToTarget.onnx (onnx, 74074 bytes, 7 tensors)

network_body._body_endoder.seq_layers.0.weight f4 [128, 4]
00000000: d845 4b3e 6772 14be 03c3 643e 6189 db3d
00000010: 9be9 b03e 63a8 2f3e 0515 a3bf 9ed4 ecbe
00000020: 7b92 083e c79b aa3e 2047 2f3d 02ea ca3e
00000030: 65ac 21be 7376 973e 3f1b 283f faa7 fbbe
00000040: 922b 823e e1da bb3e 96d9 6fbf 116d 113d
00000050: da37 e23e 3c44 a83f 17a8 b9be 0c50 47bf
00000060: 58bb 513e ca27 b6be 40d1 c0be 2e3f 6c3f
00000070: 8d4d be3d 369f bebb 1a72 0e3e f275 673e
00000080: da54 0ebf d8ec c53e 97d0 7abe 2767 413f
00000090: cc6b 393e a92a 0c3f b9f3 843c ec5d 53bf
000000a0: 5ddd a23e e057 4cbf 007a 6e3e 49a2 093f
000000b0: a8c9 d73d 5f54 1cbe 4f7b 5f3f 616f 083f
000000c0: 781a 713f 1654 8b3d d870 0d3e 40e9 4a3f
000000d0: 348b f4be c356 5d3d 5821 913c 0e09 9cbe
000000e0: e06e 903f 6850 afbe b0e1 f3be 69eb 253f
000000f0: a3bd 003e 0f92 5bbf 34e2 073f 1843 903d
00000100: 1ebd b53d 8892 7abd 68b7 d43e cf3d 84be
00000110: ea65 24bf a389 783f bb17 b73e e17f a33e
00000120: 04e6 bbbd a5d7 873f 2467 643f 4c55 13bd
00000130: 3e31 cd3e afdf ab3e 0288 aabe d0fb f3bd
00000140: 23d4 6ebf da4d d7be 3cef 8c3f 8659 de3e
00000150: 5fdf f5bd 5891 85be c2b6 873f 555e 5abe
00000160: 9bd1 0cbc f088 75bf 7d5b edbb b4fa 48bf
00000170: 2148 59bc a221 cbbe 03ef c9bd 6f1d 8abe
00000180: de92 fe3a 90a1 7c3e 8710 bfbe 58b3 98bd
00000190: 2a63 293e 9082 98bd 7168 0fbf a542 1f3e
000001a0: 5bd4 973e 9e04 0ebf 7c59 19bd dfeb 923e
000001b0: a365 6dbf dc8e d6bd 8879 323e 304c 88bf
000001c0: bf8c 5cbf 1947 223f 20ec 55bf a104 a2be
000001d0: ba81 143e 6475 10bf f592 0cbf 8981 35be
000001e0: d99f ea3e a2ad c6be 6e84 1c3e 1b2c 9c3d
000001f0: c3d7 a6bd 96b9 02be f0cf 1abf d80d 443e
00000200: b52f 6ebf 61d9 f83e 006c 03bf 1096 b73d
00000210: 92ff 053f 967f 0abe 6334 4ebf 7205 0bbe
00000220: e905 93be 33a5 90be baba 47bf 8fca 113f
00000230: c88c f13e 3c5f 88be 6567 023f 1592 07bf
00000240: ffa5 b6be 6477 5e3e 0109 96be 0d00 cc3c
00000250: beea b2be c12b 4ebe eb79 2abf 6994 ec3d
00000260: 2ac6 b23d 9775 35bf 66bf 81be bc8a 1bbf
00000270: 6f2d 38be cd10 86be d214 4b3f 6c2a 633e
00000280: b49b 083f 03df 4abe ce18 37bf 23c5 96be
00000290: 137a 01bf f321 66bf 6408 e2bd cb4f 8c3e
000002a0: 68cf fdbe cf35 173c 4e46 8abe 7b1b f5bd
000002b0: 3df9 8c3e 59e6 c63e 49a0 f5be e69f 773f
000002c0: 30ad 363f 0e50 7b3e fb07 cc3e 474a 0c3e
000002d0: f5f1 793e 2a66 1a3f c544 2abf ae1a 80be
000002e0: 581a 63bf 16f4 83bd 7b34 6a3d 46b1 b1be
000002f0: 63b8 9bbd cc09 6fbf e960 a6be a3ce f0bc
00000300: d797 50bc 9ec2 4b3f 9dfc 883e 92a0 debd
00000310: 78a9 13bf 29fa 27be 9cfc 73be a8b8 adbe
00000320: fd3b 6bbd 849d 213f 2d6b 1d3e 03de 82be
00000330: 1efa 8f3f 9dd5 e43e d45d 463f c72d 233e
00000340: ceff 6bbf 6d67 5d3e b257 83be ece5 293f
00000350: 58fb f9be a243 023e b647 16be 1d9d 0f3f
00000360: 52f0 e13c d797 8d3e a0f4 46be 671a a13b
00000370: b08c de3e 79a5 eebd b449 803e 1e8d 993e
00000380: 50f2 45bf 6098 debc fa77 35bf 31b2 45bf
00000390: 4eed aabe 95c3 193e 2722 293e c824 85be
000003a0: e46e d4bd 5b92 dc3d 592a 25bf edfc 28bd
000003b0: 1e68 c23e 9a64 67be 7ccd 563f 9282 753e
000003c0: c4ad 27bf 12ce 7dbf 0807 16bf 5a63 753e
000003d0: 3185 86be ea5a 0d3f 35bd 6abf 6c59 d5be
000003e0: 1307 f6be 3880 d7be 6a58 b0bf 1a0e 5c3d
000003f0: a24d fcbe c308 89bf c6aa 76bf 6020 bdbe
0.19850862 -0.14496766 0.22340016 0.10719562 0.34553227 0.17154078 -1.274079 -0.46255964
0.13337128 0.33321974 0.04279244 0.3963166 -0.1578842 0.29582557 0.65666574 -0.49151593
0.25423867 0.3669043 -0.93691385 0.035504404 0.44183236 1.3145823 -0.36261055 -0.77856517
0.20481622 -0.35577232 -0.37659645 0.92283905 0.092921354 -0.0058173193 0.13910714 0.22603586
-0.55598223 0.3865726 -0.24493633 0.75548023 0.18107527 0.54752594 0.016229497 -0.8256519
0.31809512 -0.79821587 0.23288727 0.5376325 0.1053651 -0.1526656 0.8729753 0.5329495
0.94181013 0.068031475 0.13812578 0.7926216 -0.47762454 0.05403782 0.017716095 -0.30475658
1.1283836 -0.34241033 -0.47633123 0.6481233 0.1257234 -0.8576974 0.53079534 0.07044047
0.08873962 -0.0611749 0.41546178 -0.25828406 -0.6421801 0.97085017 0.35760292 0.319335
-0.091747314 1.0612684 0.8921988 -0.035970017 0.4007663 0.33569095 -0.3330689 -0.11913264
-0.93292445 -0.42051584 1.1010509 0.43427676 -0.12005495 -0.2608745 1.0602648 -0.21325047
-0.008594896 -0.95912075 -0.0072435723 -0.7850754 -0.013261826 -0.39674097 -0.09860041 -0.2697558
0.0019422432 0.24671006 -0.37317297 -0.07456082 0.16541734 -0.07446778 -0.5601874 0.15552767
0.29654202 -0.55475795 -0.037438855 0.2869558 -0.9273321 -0.10476467 0.17429173 -1.064825
-0.8615226 0.63389736 -0.83563423 -0.31644157 0.14502612 -0.56429124 -0.5491174 -0.17725195
0.4582508 -0.38804346 0.15284893 0.076256 -0.08146622 -0.12766108 -0.6047354 0.19145906
-0.93041545 0.48603347 -0.5133667 0.08964169 0.52343094 -0.13525233 -0.80548686 -0.13576296
-0.28715447 -0.28251037 -0.780193 0.56949705 0.4717772 -0.26635158 0.5093902 -0.5295728
-0.3567352 0.21725231 -0.29303744 0.024902368 -0.3494472 -0.20133878 -0.6659228 0.115517445
0.08729203 -0.7088255 -0.25341338 -0.60758567 -0.17986082 -0.26184693 0.79328644 0.22184151
0.53362584 -0.19811635 -0.71522224 -0.29447278 -0.50576895 -0.8989555 -0.11036757 0.27404627
-0.495723 0.009229138 -0.27006763 -0.11968132 0.27533904 0.38847616 -0.4797385 0.9672836
0.71358013 0.24542257 0.3984984 0.1370021 0.24408706 0.6031214 -0.66511184 -0.25020355
-0.8871207 -0.0644304 0.057178956 -0.3470556 -0.07603528 -0.93374324 -0.32495812 -0.029395407
-0.012731514 0.7959384 0.2675523 -0.1087047 -0.57680464 -0.16404022 -0.23826832 -0.33929944
-0.057430256 0.63130975 0.15372916 -0.25560006 1.1248205 0.44694224 0.7748692 0.15935431
-0.921872 0.21621485 -0.25652844 0.6636646 -0.48824573 0.12721112 -0.14675793 0.5609911
0.027580414 0.27654907 -0.19429255 0.0049164775 0.4346671 -0.11652655 0.2505623 0.29990476
-0.77322865 -0.027172267 -0.70886195 -0.77225024 -0.33384174 0.15016015 0.16516934 -0.26004624
-0.10372713 0.107701026 -0.6451774 -0.041256834 0.3797006 -0.2259697 0.83907294 0.2397559
-0.6549952 -0.99142563 -0.5860448 0.23963681 -0.26273492 0.5521685 -0.91694957 -0.41669786
-0.48052272 -0.4209001 -1.3776982 0.053724386 -0.4927798 -1.0705799 -0.9635433 -0.36938763

network_body._body_endoder.seq_layers.0.bias f4 [128]
00000000: a1e8 b4bc 2d6d c43d d291 943c 7731 8b3d
00000010: 47a5 16b9 d423 7b3d 6c60 e33c cac1 5f3d
00000020: 3d5b fc3c ef45 673d 5396 d4bb a879 8f3d
00000030: 2a78 fc3b fd5c fabc 4139 4cbb d9f3 66bc
00000040: 9c18 803d 7e83 433d 4baa 4c3d 4dca 12bd
00000050: ef1c 4d3d e658 853d ad7c 2dbd 3d53 2fbd
00000060: 4a14 a0bd ce32 99bd 8a53 943c 25a5 643d
00000070: 5f26 0ebd 0528 18bd e612 2ebd 78b0 b3bd
00000080: 9db8 eebb 540c 3a3d e18c bfbc 2a68 1f3b
00000090: 6431 82bd af35 89bd 2b53 59bd ca92 613d
000000a0: d970 c4bc a7af 09bc e379 cebc ae71 8b3c
000000b0: 73ca 793d 7f86 843a 8e61 ab3c 0671 983c
000000c0: 344f 2b3d 5c19 96bc 6727 fcbc a2b4 053d
000000d0: e0bf c93c e0ac 433d 07d6 95bd febd 6e3d
000000e0: 582e c53c f685 cdbc 68a7 b5bd 3466 51bc
000000f0: 5832 e6bc c5a0 903c 3634 953d 0f3d 97bc
00000100: 29ca f63b eac7 0c3d ed04 11bd 514e 453d
00000110: 3545 863d 59ee fb3b f6ad 00bd 337d 043d
00000120: 061b fb3b 5902 50bd 595d 3b3d 16d2 593d
00000130: b6b3 133d ccb4 fabb cddc ba3b d91d 9e3c
00000140: 18e2 1c3c cecf 17bc c56b 7c3d 332c 46bd
00000150: 61c3 1b3c 2dca 16bb 6145 553d 6b28 05bd
00000160: 42a7 8d3b 2778 463d 310c 613d 7343 3a3d
00000170: 5ff5 313c dd0c 4a3d e8e2 a43b 4ef0 843d
00000180: 84de 3f3d a2e7 90bc 35e5 543d 2a86 073d
00000190: b301 f43c 9758 a3bd 66f4 ba3c 3685 9d3c
000001a0: 435f d7bc e450 523d 3f4d 083d fa2a 003d
000001b0: 0438 453d c9f2 20ba 4e91 773d febf 8c3c
000001c0: a7d1 89bd 8503 773d 02ef b1bb 2a0a 763d
000001d0: 7dc8 773d 0011 6dbc 9071 993d 87a3 663d
000001e0: 9bd4 45bd 8567 063d 4dad b3bd f8b0 a5bd
000001f0: f87f 2d3d 055d 7fbc 43e0 523d 7152 1a3c
-0.022083582 0.09591136 0.018135939 0.06796544 -0.00014366685 0.061313465 0.027755938 0.05462817
0.030805225 0.05646318 -0.0064876466 0.07005626 0.0077047544 -0.030561918 -0.0031162056 -0.014096224
0.06254694 0.047732823 0.04996709 -0.03583746 0.05007642 0.06511097 -0.04235523 -0.04280399
-0.0781637 -0.07480393 0.01810624 0.055821557 -0.034704562 -0.03714754 -0.04249849 -0.08773893
-0.007285191 0.045421913 -0.023382606 0.0024323561 -0.06357077 -0.066996925 -0.05305783 0.05507163
-0.023979591 -0.008403695 -0.025204604 0.01702198 0.060984086 0.0010110884 0.020920541 0.018608581
0.04182358 -0.01832264 -0.030780507 0.032642968 0.024627626 0.04777229 -0.07316213 0.05828666
0.02406995 -0.025088292 -0.08869821 -0.012780715 -0.028100178 0.017654786 0.07285349 -0.018461732
0.0075314236 0.03437034 -0.03540509 0.04817039 0.06556169 0.0076883254 -0.031415902 0.03234596
0.0076631336 -0.05078349 0.04574332 0.05317887 0.036060058 -0.007650947 0.005702591 0.019301342
0.009575389 -0.009265853 0.061626215 -0.048381995 0.009507031 -0.002300869 0.052068118 -0.03250925
0.004322917 0.04845443 0.054943267 0.04547448 0.010861724 0.049328674 0.005031932 0.06491147
0.046843067 -0.017688576 0.0519764 0.033086933 0.029785967 -0.079758815 0.022821616 0.019228559
-0.026290542 0.051346675 0.033276793 0.031290986 0.048149124 -0.00061396934 0.060441308 0.017181393
-0.06729441 0.06030609 -0.0054301033 0.060068287 0.060493935 -0.014469385 0.074923635 0.056308296
-0.04829846 0.032813568 -0.08773289 -0.08090395 0.04235837 -0.015586142 0.051483404 0.00941907

network_body._body_endoder.seq_layers.2.weight f4 [128, 128]
00000000: 5fa4 2c3e 9111 4d3c fa4c 953c d790 7cbe
00000010: efc1 38bd cde6 c8bd c9a7 d9bc 45e9 f43d
00000020: 20b1 4b3d 0ab6 143c c81d 03be ec84 853c
00000030: da17 3ebd b662 203d e019 0cbc 4630 8bbd
00000040: 2ba0 09be da1b fcbc 3426 683d aa46 0b3d
00000050: 0d72 f7bd 5d44 3c3d 5d35 2f3c a1cc fe3d
00000060: b6f3 053e 82d5 3bbd 20c7 dbbc cab4 7dbd
00000070: 057c c73d cdf6 aa3d 81d0 e93d 54bb efbc
00000080: 2418 e0bc 3408 aebd 3f1d 903d 31e3 b9bd
00000090: df3e 51bd bffb 93bd fa02 28bd 256b 163d
000000a0: 0c22 f6bd 4c28 a23d 2694 33be c670 003e
000000b0: 8374 1b3d d4dd a33d 7a15 213d b19b 213e
000000c0: 8ac2 12be 653a f23c e3e1 3339 8643 2cbb
000000d0: b268 90bd f019 dabd a441 30bd 5ec7 d0bd
000000e0: 3568 06be 7c50 79bd 3f04 073d 2e9c 52bd
000000f0: 6be3 20bd 85dc ab3d 784d 163d 5068 403d
00000100: 80b6 0cbe 621b 753c 76de 02bd f0b7 b33d
00000110: ba52 03bd 8669 9dbd 6ef8 47bb 989b 0bbe
00000120: 5924 a7bd dbd0 42bd 4d3b a63d 1d7f 1e3c
00000130: c90e 5dbd b54a 8abd 66a7 f9bd da3b f73d
00000140: fc3d 623d dfd6 dd3d a80f bebd 4f3b 423d
00000150: 2e60 f8bd 8193 16bd 18a8 863d 34a2 79bd
00000160: b7e3 abbd 0710 e0bd e42a b0bc 2f6d b9bc
00000170: 45a0 813d 8187 4b3d 1759 32bd 227a c4bd
00000180: d2e9 f0bd 7643 59bd 1773 f5bc e58d 18ba
00000190: 948c acbd 1dac 26be 6af7 68bd 9782 033e
000001a0: e0d7 123d 94f9 b9bd 1548 c83c 8692 e73c
000001b0: c344 b63d 5975 c6bb 6898 203e b88e b03d
000001c0: aabe 393d c2fd d03d 08af ca3c d92e 46bd
000001d0: 8e0e afbb bc40 9dbd 79a0 9f3d 0fb5 a1bd
000001e0: 3f54 ebbc 326f fcbb d9ac df3c 1799 d9bc
000001f0: e6c2 153d 34b3 ba3d 55c2 84bd 3cb1 3cba
00000200: ef73 963b 6b7f 09be 87e6 bb3d 00e1 a4bd
00000210: 7c7d a53d e511 0bbb 2f37 9cbd fb9b 333c
00000220: 2554 b43d 4cf1 a8bc 863f bb3d d3a6 0bbb
00000230: 0a9b 77bd 44a4 cfbd 17b1 efbc a7e3 0f3e
00000240: 5f6b 593c 652e 193c 4395 6a3c 4995 f33d
00000250: d16e 373d 181f c33d 2320 04be 9b5b 293c
00000260: e825 a1bd 52cb 8abd dfb1 2dbc 82e2 b33d
00000270: 639b 9a3e afac 05bd a9e6 20bd 2c28 853d
00000280: 802a 4dbd a3ee ba3c c5e8 0c3e 5b76 1abe
00000290: 9de8 943e 78a7 543d a587 743d 3a0e 763c
000002a0: 8078 a23d 1985 ad3c c821 963d 1112 44bd
000002b0: 66f3 7a3d 0eb1 49bc bdb1 d6bc c566 4cbc
000002c0: 3a7c bfbb e38c e7bc 03da ff3d 4f30 2fbc
000002d0: 9351 74be 6775 a33c f650 0abc c6f0 1ebe
000002e0: a877 c43b acd8 09bd bd48 64bd 11f0 87bd
000002f0: 235e 2bbc 8df3 a13d 0906 f6bd 4650 263d
00000300: d6c4 0ebe e350 8d3d 3389 8c3d 7a44 d2bd
00000310: d296 443d 4098 fa3d a465 bcbb 01e5 783d
00000320: 239a 943d 06d3 b13d 3884 edbc 4921 f8bc
00000330: 8c6d 4c3d 625d 263e a18a 1cbd 888e 1ebe
00000340: 00eb 183e 29d3 413e 8e03 023e 71df a2bd
00000350: f957 81bc 5e7b df3d 5f13 21be 4151 913d
00000360: 222a 87bc d9c0 d3bc dd6c 02bd 50a6 1cba
00000370: 4096 733d 85fa 45bc 211f 07bd 43fe c33d
00000380: dbc3 0f3d cd20 09bb 7f6d ffbc 1142 71bd
00000390: 3985 5ebd c14f 913d f6ca 3abd a303 f63c
000003a0: e9ad a33d 3f21 69bd eee5 44bd 20a2 35bd
000003b0: 6183 0e3e 0dbc cbbd 5e24 32bc 63f3 babd
000003c0: 092d 503d 20dc 293d deb0 f03d b96f 983d
000003d0: 540f 7f3d f600 4d3d 0b93 c13d db74 3a3c
000003e0: fd40 2a3d 9ff7 843d 7a45 dbbc f6c1 a33d
000003f0: 1156 a3bb 5c14 563d 3d83 493d 1cfd 443e
0.16859578 0.012516395 0.018225182 -0.24664627 -0.045106824 -0.09809647 -0.026569264 0.11958555
0.049729466 0.009076605 -0.1280433 0.016298734 -0.046409465 0.039156638 -0.008551091 -0.06796317
-0.13440005 -0.030775 0.05667706 0.034002937 -0.120823 0.045963634 0.010693875 0.124413736
0.1308125 -0.045857914 -0.026828349 -0.061939992 0.09740452 0.08347855 0.11416722 -0.02926413
-0.027355261 -0.08497658 0.07036828 -0.090765364 -0.05108535 -0.07225751 -0.041018464 0.036723275
-0.12018213 0.07917842 -0.17536983 0.1254302 0.03795291 0.08001295 0.039327122 0.15782048
-0.14332023 0.02956886 0.0001715492 -0.0026285364 -0.07051219 -0.106494784 -0.04303135 -0.10194276
-0.1312569 -0.06086777 0.032963034 -0.051418476 -0.039279383 0.0839167 0.036694974 0.04697448
-0.13741493 0.014960142 -0.031950437 0.08775318 -0.032061316 -0.076861426 -0.0030513066 -0.13633573
-0.0816123 -0.04756246 0.081167795 0.009673861 -0.05396918 -0.067525305 -0.12190132 0.12071963
0.055234894 0.10831999 -0.0928033 0.047419842 -0.1212772 -0.036761764 0.0657503 -0.060945705
-0.083930425 -0.10940557 -0.021504827 -0.02263507 0.06329397 0.049689773 -0.043541994 -0.095936075
-0.11763348 -0.05304285 -0.029962106 -0.0005819484 -0.08425251 -0.16276594 -0.056876577 0.12842785
0.035850406 -0.090808064 0.024448434 0.02826811 0.08899834 -0.0060564694 0.15683138 0.086209714
0.045347847 0.102046505 0.024741665 -0.04838452 -0.005342311 -0.07678363 0.077942796 -0.07895862
-0.028726695 -0.007703685 0.0273041 -0.026562257 0.036562823 0.091162115 -0.064823784 -0.0007198041
0.004591457 -0.13427512 0.09174829 -0.08050728 0.08080575 -0.0021220383 -0.07627713 0.010962482
0.08805112 -0.020622872 0.091429755 -0.0021309152 -0.06045059 -0.10138753 -0.029259248 0.14051686
0.013270228 0.00934944 0.014317813 0.11893708 0.044783417 0.09527415 -0.12902884 0.010336782
-0.07868558 -0.067770615 -0.01060149 0.08783437 0.30196676 -0.032635387 -0.039282475 0.06501803
-0.05008936 0.022818869 0.1376067 -0.15084212 0.2908372 0.051917523 0.059699673 0.01501804
0.0793314 0.02118163 0.07330662 -0.047868792 0.06126728 -0.0123102795 -0.0262078 -0.012475674
-0.0058436664 -0.028265422 0.12492754 -0.01069267 -0.23859243 0.019953443 -0.008442154 -0.15521535
0.0059957094 -0.0336539 -0.05573343 -0.06637586 -0.010459456 0.07907782 -0.1201287 0.0406039
-0.13942274 0.069001935 0.06862106 -0.10266967 0.047995396 0.12236071 -0.005749421 0.06076527
0.07255962 0.08682828 -0.02899371 -0.03028931 0.04990916 0.1624656 -0.038218144 -0.15484059
0.14933395 0.18928207 0.12696669 -0.07952774 -0.015789019 0.10912202 -0.15730046 0.07095576
-0.016499583 -0.025848793 -0.0318421 -0.000597571 0.05946946 -0.012083654 -0.03298867 0.09569981
0.03509889 -0.0020924092 -0.031180141 -0.058900896 -0.05432627 0.0709529 -0.045603715 0.030031031
0.07992155 -0.05691647 -0.04807084 -0.044344068 0.13917305 -0.09947977 -0.010872928 -0.091284536
0.0508242 0.041469693 0.11752485 0.074431844 0.062270477 0.050049745 0.09451874 0.0113804
0.041565884 0.064925425 -0.026766527 0.079959795 -0.004984625 0.05226551 0.049197424 0.19237179

network_body._body_endoder.seq_layers.2.bias f4 [128]
00000000: cd91 71bc b99c 94bc 2734 9dbc 1a61 c83c
00000010: 1bd7 063d 231c bdbc f8da 0bbd 575b 943d
00000020: a04e acbc 97e3 423d d2a0 8b3d b9f3 ffb9
00000030: 2467 8e3d 8f74 3bbc 1cf6 343d 1fdf 1bbd
00000040: cb8b abbb 8996 153d 2e78 64bb 323f b2bc
00000050: 83e8 573c 65af e4bb a710 cbbc f0f3 ce3b
00000060: 8138 b7bb d6d3 0abc 79e8 9fbc 9bf5 643d
00000070: 76bf 433d 3ee8 11bd 06ef 703d 5d16 10bd
00000080: 2247 753d 3da7 0cbd 8ae3 ea39 26bc b2bc
00000090: d85b ccbb 8873 1e3d d8bc 07bc 97c2 8ebc
000000a0: 8830 493d a3de 023d aedd 3f3d 1fc5 db3b
000000b0: 2e1d 9c3b 75ae d8bc 7891 a2bc 7eea 5bba
000000c0: 074b 353d 26f7 6f3d 2f84 393c 30ec 0d3d
000000d0: f4b3 1dbd 0406 0fbd 2900 2d3d daf5 0dbd
000000e0: 5548 babc 65ad 5e3d af2c 25bd 0239 393d
000000f0: 25da 6c3d ac56 f63c 5093 41bc 8f2b 10bd
00000100: 6193 743d 1987 f3bc 9d14 1ebc cacd 7c3c
00000110: 174d 05bd 9234 463d 6eda 433d e107 803d
00000120: ed7f 743d 25f0 903d 586a 64b9 2c11 92bc
00000130: ae8b 043d dc49 12bd aebf 573d d0ac e1bc
00000140: f14d 283d cb65 cf3c 49f0 bebc fefe c43c
00000150: 538d 733c 19f1 5c3d 9a02 273d 68ee 893d
00000160: b3be fcbc 7a8d bebc 5832 8abc d162 463c
00000170: 9872 943d ef44 533d 2420 c0bc 9925 343b
00000180: 7804 653c 3e0e e3bc 11eb 7a3d 08ff 2f3d
00000190: dad1 0fbd f4b8 0cbd 8a74 10bd 3821 15bd
000001a0: 5178 183d e802 79bc 49ca 45bc 9d96 433d
000001b0: 252a f6bc 8b66 28bd b407 0c3d 0097 9f3d
000001c0: 02e8 263d 8c72 503d 931e efbc ca23 00bd
000001d0: 8886 dabc 48fd 6d3d 1051 8f3d e775 6c3d
000001e0: 4dfe 703c 167b 8ebc 7b34 723d d2bd 8d3d
000001f0: 6867 8bbc 01d5 6d3d ad43 3e3c 5ff2 0ebd
-0.014744234 -0.018141137 -0.019189907 0.024460364 0.032919984 -0.023084706 -0.03414437 0.07243984
-0.021033585 0.047580328 0.068177834 -0.00048818978 0.06953266 -0.011441364 0.04418002 -0.03805458
-0.0052351705 0.036520515 -0.0034861672 -0.02175865 0.013177994 -0.0069789165 -0.024788214 0.0063157007
-0.0055914526 -0.008473357 -0.019520031 0.05589829 0.047790013 -0.035621874 0.0588217 -0.035177577
0.05988229 -0.03433918 0.00044801488 -0.021818232 -0.0062365346 0.038684398 -0.00828477 -0.017426772
0.04911855 0.031950604 0.04684227 0.0067068483 0.0047642207 -0.026450375 -0.019844756 -0.0008389129
0.044261005 0.05858531 0.011323019 0.034649074 -0.038501695 -0.034917846 0.04223648 -0.03465829
-0.022739569 0.05436458 -0.040325817 0.045220383 0.057825226 0.030070625 -0.011814907 -0.03519779
0.059710864 -0.029727506 -0.009648469 0.015429923 -0.03254422 0.04838998 0.047815733 0.06251503
0.059692312 0.07077054 -0.0002178339 -0.017830454 0.03235977 -0.03571497 0.052673034 -0.027548224
0.041089956 0.025317093 -0.023307936 0.024047371 0.014865237 0.053940866 0.040773965 0.067349255
-0.030852651 -0.02326082 -0.016869709 0.012108521 0.072484195 0.051579412 -0.023452826 0.002748823
0.013978116 -0.027716752 0.061259333 0.042967826 -0.03511224 -0.034356073 -0.03526739 -0.036408633
0.037224118 -0.015198447 -0.012072154 0.047751058 -0.030049393 -0.041113418 0.034187034 0.07792473
0.040748604 0.05089049 -0.029189384 -0.03128413 -0.026675478 0.058102876 0.06997883 0.057729628
0.0147090675 -0.017392676 0.05913208 0.06920971 -0.017017081 0.058064464 0.011612815 -0.03489911

action_model._continuous_distribution.log_sigma f4 [1, 2]
00000000: eb21 70bd d569 a8bc
-0.058626097 -0.020558277

action_model._continuous_distribution.mu.weight f4 [2, 128]
00000000: 2d2b b3bd 10d3 18bc 3a17 7abd 471f 283c
00000010: 4201 053c afa3 12bd aa40 ffbc a0d0 783d
00000020: e65a b5bd e9c9 313d 7024 5d3d 78fc 52bb
00000030: db01 2d3d 2b23 8fbd 7261 bd3c 64cb 74bd
00000040: bf9f 88bd 9010 65b9 5d25 22bd 2542 54ba
00000050: 5f05 ccbd 6d16 c4bd d2c8 8abd dd8e 60bc
00000060: 3f90 85bd 8a12 66bd 4b1a a4bd e67c 273d
00000070: 83b6 b83c c3e7 cebc e8c8 233d 6a3a a5bd
00000080: e55e 843d 4d76 b5bd 4afe 8bbb cce3 40bd
00000090: ada9 b4bc 736c 9f3c e2f7 07bd 5f50 f6bb
000000a0: c425 323d 408e 93bc 8a3c b63c 3524 33bd
000000b0: 2618 89bd 3fea 21bd 9435 a1bd ea71 dbba
000000c0: 79df dc3c d8ba 6d3d 547d 83bd c2f6 5f3b
000000d0: 9631 66bd a1ea 49bd b37c 843b df82 3bbd
000000e0: 253c 13bd 3cba 5b3d c598 babc 279f 9c3c
000000f0: 8c3c c33c 7875 bc3c 9e7c 70bd 0199 e5bc
00000100: a122 2f3d ee50 4bbd 029f 2ebc 351e 13bc
00000110: 5740 ddbc b970 ea3c 9bb4 b73c dcdd 373d
00000120: 2166 9b3d 4143 543d fbd9 ea3b 69a8 c1ba
00000130: 7a52 723c 111d a0bd 95d0 853d ea44 ecbc
00000140: a048 e33c 9982 393c f39c ebbd 597c bf39
00000150: 3f91 b8bc 9811 1d3d fef8 a63c 0bb9 473d
00000160: cec0 b4bc fcce ccbd 5227 edbb 6265 fc3b
00000170: 894a 083d 47ee 313d 00a5 bbbc 6934 71bd
00000180: a2b6 153c bdd0 bdbd 1b00 773d 7c34 bc3c
00000190: fc88 a1bc 4ebb 6cbd e870 53bd 00df f2bc
000001a0: e58c c23a ab45 96bd 579c 53bd 2b70 303d
000001b0: 8a35 3ebc f9e3 3ebd bb7c 823c 9abf 4f3d
000001c0: ce53 fb3c b32c 1b3d cbb6 8cbd 2ead 15bd
000001d0: c910 ccbc 4994 813d 1f7b 833d f426 113d
000001e0: 379e 8cbb 5496 eabc 0c7b 293d 3ead 803d
000001f0: f077 a4bd 7184 983c b476 c1bc 9c6d 16bd
00000200: dea5 863c 41e2 5abc 7c9f 94bb 5d58 823d
00000210: 596b 6e3d ea61 483d 07ed 81ba 95ec 783b
00000220: e2e3 0c3c 7ed6 0a3c 6884 88bc 4382 b83c
00000230: 7b59 fcbc a848 0dbb 4cb6 e0bc a981 9fbc
00000240: d39a 1d3d 3eee 5fbd f148 30bd b102 8cbb
00000250: c127 8239 d15b 2c3c e263 dc3c e606 53bd
00000260: 65a3 c0bc 815a 3cbd 86b2 663b e79a e13d
00000270: c86b 723d d649 c1bb 1d56 1c3d 38ee 7b3c
00000280: 061f da3c a298 c83b f74e 513d d604 443d
00000290: 566b 6e3d d569 78bd b752 603d 915a b5bc
000002a0: ea43 063d 9151 adbd 3c3b aabb 8088 693d
000002b0: f065 7d3c 02d7 ecbc 02a4 013c 5b5b 4a3d
000002c0: 0580 65bc d24c 6b3c c06d 4cbd 1bfe 8dbd
000002d0: 2745 af3b 3080 ca3c fefa c23d 481b 283c
000002e0: fb66 e43c 5cf9 3a3d 952d 013b 8b51 77bd
000002f0: 77b5 0e3d 7b64 acbc 3251 8abd 0239 aebc
00000300: 4ae8 59bd 1d89 2a3d f722 0f3d d9b5 97bd
00000310: e8f2 983b c213 35bd 0888 2fbc 1099 2e3d
00000320: 2220 5e3c 4a03 63bc d26b 7c3d c38d 103d
00000330: ffc0 73bd de68 cabb 428a 2dbc 6795 e7bc
00000340: 69d4 45bd 04c2 9bba 5e09 ae3b 159a 3abd
00000350: 32c4 78bd 6b75 07bd 5fca 823d 5d26 bc3c
00000360: 10f4 86bc b638 f6bb ab0c d93c 90ad ec3b
00000370: 3581 62bd 4b5e f2bc b5c1 6bbc 26f9 073d
00000380: 20a1 843d 11ca 00bd c5cf ee3c cc83 b9bc
00000390: 31e3 eb3c 159c 153d 1d1c 493b 5041 a5bb
000003a0: 9344 803d aade 853b 0984 863c 6afb 14bd
000003b0: 339c 45bb b34f b63c 0929 e0bb cf04 01bd
000003c0: d86e 9f3d 2d52 873c 3a5a bebc 3db9 493c
000003d0: c36e b13c 8a71 4abc 5ac6 0a3d b3d8 05bd
000003e0: 6640 01bd c1c8 05bd 4f04 36bc 8c78 49bd
000003f0: 939a 83bb 8cb0 77bd 4cb2 913d 9f7e a13c
-0.087484695 -0.009327665 -0.061057307 0.010261363 0.008117976 -0.035800632 -0.031158764 0.060745835
-0.08855228 0.043405447 0.053989828 -0.003219394 0.042238098 -0.0698913 0.023117755 -0.05976428
-0.06671094 -0.00021845312 -0.039586414 -0.00080970145 -0.09961962 -0.0957459 -0.06776585 -0.013705936
-0.065216534 -0.056170024 -0.080128275 0.040890597 0.022547966 -0.025256997 0.03998652 -0.08067782
0.06463412 -0.08860455 -0.004272257 -0.047092244 -0.022053564 0.019460892 -0.033195384 -0.007516905
0.043493047 -0.018012166 0.022245664 -0.0437357 -0.06694059 -0.039530035 -0.07871547 -0.0016742323
0.026962029 0.058039516 -0.06420389 0.0034174179 -0.056199633 -0.049296025 0.0040431856 -0.045779105
-0.03594603 0.053644404 -0.022777924 0.019118859 0.023832582 0.023005232 -0.058712594 -0.02802706
0.042757634 -0.049637727 -0.010658028 -0.00897937 -0.027008219 0.028618203 0.022424987 0.044889316
0.07587839 0.05182195 0.0071670986 -0.0014774922 0.014790172 -0.07818044 0.065339245 -0.028841455
0.027744591 0.011322641 -0.11504545 0.00036523005 -0.022530196 0.038346857 0.0203824 0.048760455
-0.022064593 -0.10000417 -0.0072373534 0.0077025155 0.033274207 0.04344013 -0.022905827 -0.058887873
0.009137781 -0.09268329 0.060302835 0.022974245 -0.01971864 -0.057795815 -0.051621348 -0.02964735
0.0014843015 -0.07337507 -0.05166277 0.04307572 -0.011609444 -0.04660413 0.015928617 0.050719835
0.03067961 0.037884425 -0.068708025 -0.03654211 -0.024910348 0.06327111 0.06419968 0.03543754
-0.0042913216 -0.028636135 0.041377112 0.06283043 -0.08030689 0.01861784 -0.023616172 -0.036725625
0.016436514 -0.013359607 -0.0045356136 0.0636451 0.058207843 0.048921503 -0.0009912559 0.003798281
0.008599253 0.0084739905 -0.016664699 0.022523051 -0.030804386 -0.00215582 -0.027430676 -0.019471006
0.03847773 -0.054670565 -0.043038312 -0.004272782 0.0002482515 0.010519938 0.026903097 -0.05152025
-0.023515413 -0.04598475 0.0035201623 0.110158734 0.05918482 -0.0058986945 0.03816806 0.01537662
0.026626121 0.006121711 0.051100697 0.047856174 0.058207832 -0.060647804 0.054766383 -0.022137912
0.03277961 -0.08462823 -0.0051950496 0.057014942 0.015466198 -0.028911117 0.007912638 0.04940353
-0.014007573 0.014361577 -0.049909353 -0.069332324 0.00534882 0.024719328 0.09520529 0.010260411
0.027881136 0.045647964 0.0019711007 -0.0603805 0.034841027 -0.021044007 -0.06753768 -0.021267418
-0.053200044 0.041634668 0.034945454 -0.074077316 0.0046676286 -0.044208296 -0.010713585 0.04262644
0.013557466 -0.013855765 0.061626263 0.035291445 -0.059510227 -0.006177052 -0.010592045 -0.028269483
-0.048298273 -0.0011883383 0.0053111752 -0.0455571 -0.06073398 -0.033070963 0.063862555 0.022967512
-0.0164738 -0.0075140847 0.026495298 0.0072228387 -0.055299003 -0.029585978 -0.014389445 0.03319659
0.06476045 -0.031442706 0.029151807 -0.022645853 0.028794857 0.036525805 0.0030686923 -0.0050431862
0.062630795 0.0040853815 0.016420381 -0.03637258 -0.0030152916 0.0222548 -0.0068408293 -0.031498726
0.07784814 0.016518677 -0.023236383 0.012312231 0.02165926 -0.012356171 0.03388057 -0.032677364
-0.031555556 -0.032662157 -0.011109426 -0.049187228 -0.0040162294 -0.060471103 0.071140856 0.019713698

action_model._continuous_distribution.mu.bias f4 [2]
00000000: 10bc 4a3d b22b 06bc
0.049495757 -0.008189129
